kernel_1124.npy (npy, 2996 bytes, 1 tensors)

array f4 [1, 1, 27, 27]
00000000: 79cb 643b 01c2 adbb 237b c2bb 47db c73a
00000010: 779e ee3b b524 fc38 6411 38bc 049c ee3b
00000020: 0014 293c aeb0 f0bb aebb cbba 3c6d 57ba
00000030: 216e b3bc 6973 ca3c fcdb f1ba a2bf 703c
00000040: fecb 263b 9f69 5dbc 795a 41bb df57 813b
00000050: 133c 1bbb e99d 04bb c598 8b3b 5d3e 6739
00000060: 63fd b0b9 5c59 d43a 66a9 95bb 81d9 163b
00000070: aac3 49bb f07e 8fbb f24a ae3a 6135 8d3b
00000080: fb3c 1e3b 6f35 eebb 6543 873b 9e50 493c
00000090: 2cbb 0bba dbf5 21bb 7ce7 d7bb d77e a9bc
000000a0: b284 e73c ab08 24bc d818 5c3b e5b8 b43b
000000b0: e774 84bb 92c6 93bb 3a67 133b 4e46 6ebb
000000c0: 82b4 05bb 24b9 aa3b 71fd 253a 69d3 aeba
000000d0: 5f7f 153b 404f 23bb d57e f9b9 e88e e1ba
000000e0: f475 05b9 089c 57ba 94d8 b1ba a862 043b
000000f0: 6d59 1eba 75b3 a839 7665 173b 13bf 00ba
00000100: d82c b73b 58d5 0bbb 7400 8fbc e8ae dd3c
00000110: e913 84bc e71e 90bb a65e e939 d1bc 723b
00000120: df85 9cba f0bc 9fb9 5f75 5fbb 0d18 18bb
00000130: 3c58 6d3b 90da a43a fbfc 2cbb 5473 383b
00000140: ac52 193b e09e 12ba 7553 caba d938 b53a
00000150: 4d17 1ebb 24a9 20bb 4862 b13a d20e a23b
00000160: 7385 d4b9 7239 e3bb ba0f 2bbb faf8 2c3c
00000170: dbf7 d23b 97ce 76bc d164 d53c 82ae 8dbc
00000180: b83a 06bb 9dd1 07ba 1867 6f3b b0ed 573b
00000190: 64e7 c039 bdd9 78b9 7fc9 c8b9 4c26 9e3a
000001a0: 0c12 fd39 4b6d 74bb 80b7 a2ba 7598 233b
000001b0: 3833 163b 8dcf 87ba c386 7f3b 9b06 003a
000001c0: a4e0 18bb 2074 8d3a 5a70 083c f6a9 1c3b
000001d0: 11f7 08bc e289 d0bb 44b4 2e3b dde4 163c
000001e0: bb72 65bc 5dd7 c43c 0b96 7fbc 9879 c6ba
000001f0: 7550 beba 1128 ff3a f809 9d3b 2e88 02bb
00000200: dcf4 c839 65dc 693b 634f 16bb e65a b2ba
00000210: 37db 8f39 7edd 36bb dd88 9e39 77db b13a
00000220: b254 85ba 1ae6 d63b 63a6 693b 65c3 c6bb
00000230: 4270 44bb 6521 c23b d159 5739 cc27 57bc
00000240: 3491 33bc d25e e0bb 76e2 db3b f9ad 4cbc
00000250: 0bee b83c 3cc5 78bc 2217 8139 def9 7ebb
00000260: ddc2 d73a c82c ac3b 280d 9abb c756 2e3a
00000270: 8435 953b b8ab adbb 7836 3ebb d69c 923b
00000280: 0d41 533a 74d9 0a3b f8ab 55ba 7f72 8a39
00000290: 2436 cf3b 1e2d 5b3b 3786 d1bb 149f b4ba
000002a0: e1c6 8fba 133c 6bbc 8389 71bc 83b6 4f3c
000002b0: 69a1 a53b 46d9 813c c616 723c 3940 8c3c
000002c0: 83bc 98bc c9a8 4b3b ee1d 9ebb d563 85bb
000002d0: 7ed0 cf3b ca84 6fbb b5a1 193b ebf9 2d3b
000002e0: 66ce dcbb d231 7abb 4672 5c3b e233 7b3a
000002f0: f55c 0a39 c11c 01bb 3a7b 343b cc3f 0cb9
00000300: 5dda f2ba 0726 afba 0099 a63b fe07 16bc
00000310: ef78 b0bc f788 8e3c 28c2 7e3c 57ad 19bc
00000320: 07a0 0fbb ccb7 523c cc4f 4f3c 3fbe a9bc
00000330: 62f2 ad3b b6d3 81bb 0b3e 51bc f6b2 a73b
00000340: 16ea e9b9 adec 023b 2e41 8b3b 936e b5ba
00000350: 9dbc 85ba 0542 213b 07f7 b13a f604 fcba
00000360: 935a 6eba 6082 b33b 9312 00bb 4818 d8ba
00000370: 0846 703b cfef 073c 381b dabb e233 9cbc
00000380: 88be a63c 7d91 873c d108 42bc 325b 18bc
00000390: 9a9f e63b a561 403c 0ecc 93bc e7c5 183c
000003a0: 8ffe 583a 13bb 5dbc 9381 1d3b 39e7 243b
000003b0: 3045 cdba 46ba 8a3b f257 833b 9649 30ba
000003c0: c6c1 273a e0e5 5a3a 2dcb 07bb 9301 53b9
000003d0: ea7e 2a3b 44da edba 1d96 1a3b 9383 963b
000003e0: f24f ca3b 413d f03a e34e 50bc 8deb 4fbc
000003f0: 3db9 3d3c 5ef2 0bbc dd6d 32bc ac37 dc3b
0.0034911318 -0.005302668 -0.005935089 0.0015247845 0.007282074 0.000120231336 -0.011234615 0.007281782
0.01031971 -0.0073452806 -0.0015543604 -0.00082178763 -0.0219031 0.024713235 -0.0018452401 0.014694126
0.0025451179 -0.013513952 -0.0029503389 0.0039472426 -0.002368693 -0.0020235723 0.004260155 0.00022053109
-0.00033758124 0.0016200948 -0.004567313 0.0023017826 -0.003078679 -0.004379146 0.0013297482 0.004309342
0.0024145234 -0.0072695534 0.004127907 0.012287287 -0.000533032 -0.0024713192 -0.0065888744 -0.020690365
0.028261516 -0.010011832 0.0033584144 0.005515205 -0.004042256 -0.0045097554 0.0022491948 -0.0036357823
-0.002040178 0.0052100588 0.0006332016 -0.0013338152 0.0022811515 -0.0024919063 -0.00047587478 -0.0017208727
-0.0001272781 -0.00082248496 -0.0013568574 0.0020200405 -0.0006040547 0.00032177163 0.0023101247 -0.0004911285
0.0055900626 -0.002133688 -0.01745627 0.02706094 -0.016122775 -0.004398215 0.00044511742 0.0037038813
-0.0011941752 -0.00030467613 -0.0034097058 -0.0023207695 0.0036215922 0.0012577344 -0.0026395905 0.0028144913
0.0023395224 -0.0005593132 -0.0015436249 0.0013826146 -0.0024122775 -0.0024514878 0.0013533318 0.0049456144
-0.00040535218 -0.0069343382 -0.0026101903 0.0105574075 0.006438238 -0.015063903 0.02604905 -0.017295126
-0.0020481776 -0.0005181076 0.0036529955 0.003294807 0.00036793493 -0.00023732237 -0.000382971 0.0012065857
0.00048269366 -0.003729659 -0.0012414306 0.0024962698 0.0022918712 -0.0010361538 0.0038990236 0.0004883797
-0.0023327256 0.0010792054 0.008327568 0.0023905016 -0.0083596865 -0.006364093 0.002665774 0.009209839
-0.014004405 0.024028474 -0.015599738 -0.0015142439 -0.0014519828 0.0019466897 0.004792448 -0.0019917595
0.00038329407 0.0035684344 -0.0022935502 -0.0013607412 0.00027438413 -0.0027903016 0.0003023808 0.0013569434
-0.0010172336 0.006558192 0.0035652153 -0.0060657733 -0.0029974137 0.005924391 0.00020537457 -0.013132047
-0.010959912 -0.006847241 0.006710346 -0.01249265 0.022574445 -0.015183743 0.00024622033 -0.0038906257
0.0016461272 0.005254362 -0.0047012754 0.0006650504 0.0045534987 -0.0053000115 -0.0029024165 0.0044742627
0.00080587046 0.002118674 -0.00081509305 0.00026406717 0.0063235927 0.003344364 -0.0063941735 -0.0013780319
-0.0010969305 -0.0143575845 -0.014742258 0.0126777915 0.005054642 0.015850674 0.014775937 0.017120467
-0.018644577 0.0031075946 -0.0048253452 -0.004070739 0.006341993 -0.0036547654 0.0023442332 0.0026546668
-0.006738472 -0.0038176668 0.0033637448 0.0009582621 0.00013195335 -0.0019700977 0.002753927 -0.00013375207
-0.0018528212 -0.0013362773 0.005084157 -0.009157179 -0.02154204 0.017399294 0.01554922 -0.009379706
-0.0021915452 0.012861203 0.012653302 -0.0207206 0.0053084353 -0.0039620055 -0.01277114 0.0051177694
-0.0004461563 0.0019977496 0.0042497134 -0.0013842158 -0.0010203306 0.0024606 0.0013577648 -0.0019227553
-0.0009092476 0.0054781884 -0.001954232 -0.0016486729 0.0036662836 0.008296921 -0.0066560768 -0.019067708
0.020354524 0.016548866 -0.011842922 -0.009299086 0.007038069 0.01174203 -0.018041637 0.009324527
0.0008277678 -0.0135333715 0.002403353 0.0025162234 -0.0015660878 0.0042336313 0.0040082866 -0.00067248323
0.0006399419 0.0008350294 -0.0020720467 -0.00020123115 0.0026015588 -0.0018146713 0.002358801 0.0045933216
0.006174081 0.0018328802 -0.012714121 -0.012690437 0.011579809 -0.008541672 -0.010890451 0.006720504
