kernel_1124_1.npy (npy, 10484 bytes, 1 tensors)

array f4 [1, 1, 51, 51]
-0.0078120693 0.012295686 -0.015243361 -0.015700534 0.0009324541 0.002721916 0.0134597225 -0.012017796
-0.0005432018 -0.0014542266 -0.009375136 0.0027598275 -0.009260194 0.019203447 -0.010965052 0.010658995
-0.016150406 -0.015436451 -0.017970737 0.0011551769 0.01616518 0.011151273 -0.013568341 -0.008575452
-0.0030601027 0.02070017 0.00027367737 0.0043282933 0.0037339681 -0.005494688 0.013967712 -0.011616527
-0.013911432 0.021472843 -0.0057240156 0.003930381 -0.012370692 0.017970463 -0.01765754 -0.01597069
-0.0050422163 0.018552825 -0.0005118745 0.0066541964 0.007912612 0.003664172 0.0064370097 -0.010390962
0.011090505 0.012488165 0.013314107 -0.0126743335 0.011438781 -0.012345179 0.00050891767 -0.0011244816
-0.00032380538 -0.0012803893 -0.005565504 -0.009472212 0.003788797 0.0029565115 0.005236605 0.00564625
-0.005061163 -0.013549593 -0.0072929137 0.006301172 -0.001211351 0.009120469 -0.0087027205 -0.0054313373
-0.00296579 -0.002808747 0.0012192742 0.00013921125 0.009348576 -0.0041299523 0.0012030026 0.013734941
0.013923591 -0.017050248 0.020245148 -0.007337786 -0.009823147 -0.0029242383 -0.008757987 0.008282146
-0.009693043 0.0072072186 0.0040336875 -0.00029955522 -0.012649203 -0.0076528005 -0.004575691 -0.00532343
0.0042629354 0.00915224 0.0010419238 -0.0062150857 0.0036492432 -0.0063913483 0.014477341 -0.0083330255
0.0109574655 0.014490302 0.0073367776 -0.0024919673 0.0063821697 -0.01405758 0.013148101 0.004109571
-0.013042137 0.014574119 0.0190019 -0.0073547335 -0.0012869063 0.004880643 0.014442609 -0.01659664
-0.008265965 -0.005384855 0.011939882 -0.0012498039 -0.011655695 0.015613569 0.0010466175 0.004213128
-0.00829861 -0.008698706 -0.014289408 -0.011002738 -0.0012192562 0.014370277 -0.009019448 0.010607657
0.014683745 -0.0036852262 0.018970834 0.0136782 -0.01660305 -0.0060263914 -0.014093285 0.012280776
-0.0052591506 0.007440059 0.0031597628 -0.0058196476 -0.01071322 -0.015016052 -0.004288207 -0.0034719938
-0.0014634123 -0.0077564945 0.001190312 0.018723127 0.003297167 0.010610252 0.0033855354 0.017836386
0.0011092334 -0.017752295 -0.007447763 0.0004587684 -0.0008066988 0.009172147 0.008891256 -0.008289578
0.01235398 -0.013529827 0.0015594445 0.0073072053 0.0012274453 -0.01504606 0.008764548 -0.0038952313
-0.010918779 0.0065972954 0.0069102272 -0.011676796 0.002459143 0.0055865585 0.017344855 -0.0124916
0.010455901 0.004248813 -0.0135713145 -0.008211208 -0.002527176 -0.018902244 -0.00024366607 -0.01781063
0.01243103 0.016679266 0.014681706 -0.0066613466 -0.007688956 0.0057315654 0.015290527 -0.0073115616
0.018258717 -0.012121531 0.018293474 -0.011554656 0.0054135765 -0.0005051784 -0.005987161 0.009085163
-0.0045433957 0.0065976526 -0.007899417 0.012475828 0.004216883 -0.009652703 -0.017729295 -0.014427459
0.00582943 0.016644632 -0.012168167 -0.011361795 0.009793817 0.004099791 -0.0051716063 0.013244181
0.017639972 -0.008281289 -0.021337474 -0.01781333 -0.010554249 0.004442557 -0.00030523317 -0.0076423152
-0.011869974 0.0028202336 -0.012190305 0.016821003 0.009655022 0.015136189 0.0059291725 -0.005465316
0.009096581 -0.0032758515 0.012387252 0.01284358 0.016854828 -0.013252711 -0.0073534744 -0.0039983904
-0.019337319 0.0032062898 0.016746858 -0.013806426 0.011581562 0.011055091 0.012764306 -0.0028749981
00000000: 63fc ffbb d873 493c 4abf 79bc 689e 80bc
00000010: ef6f 743a 2c62 323b 2b86 5c3c 4ae6 44bc
00000020: a865 0eba bf9b beba 2c9a 19bc 39de 343b
00000030: 12b8 17bc 8c50 9d3c c3a6 33bc 11a3 2e3c
00000040: db4d 84bc 2be9 7cbc 5e37 93bc 4e69 973a
00000050: d76c 843c d4b3 363c bf4d 5ebc 0d80 0cbc
00000060: 018c 48bb 6793 a93c 5b7c 8f39 5bd4 8d3b
00000070: 97b5 743b c90c b4bb d5d8 643c 3f53 3ebc
00000080: c6ec 63bc d1e7 af3c 8690 bbbb 6dca 803b
00000090: 71ae 4abc cb36 933c 8ca6 90bc f7d4 82bc
000000a0: 2d39 a5bb 18fc 973c 512f 06ba 720b da3b
000000b0: e6a3 013c 9b22 703b 8ded d23b da3e 2abc
000000c0: f3b4 353c 299b 4c3c 6a23 5a3c 02a8 4fbc
000000d0: ba69 3b3c 6f43 4abc e368 053a 5763 93ba
000000e0: 6cc4 a9b9 bcd2 a7ba d55e b6bb 5631 1bbc
000000f0: 774d 783b 08c2 413b d497 ab3b 2e04 b93b
00000100: 1dd8 a5bb 1dff 5dbc 65f9 eebb 107a ce3b
00000110: 32c6 9eba 056e 153c db95 0ebc 5cf9 b1bb
00000120: b35d 42bb f512 38bb 0ed0 9f3a 3cf9 1139
00000130: c52a 193c 8d54 87bb 12ae 9d3a 8508 613c
00000140: c61f 643c f6ac 8bbc 27d9 a53c cf71 f0bb
00000150: 44f1 20bc 94a4 3fbb a97d 0fbc d7b1 073c
00000160: 92cf 1ebc 882a ec3b 062d 843b 9f0d 9db9
00000170: 9a3e 4fbc 58c4 fabb aeef 95bb 2b70 aebb
00000180: 18b0 8b3b 47f3 153c 2991 883a eba7 cbbb
00000190: 2428 6f3b 846e d1bb 5f32 6d3c 3e87 08bc
000001a0: f186 333c bb68 6d3c 5a69 f03b 4650 23bb
000001b0: 8521 d13b c451 66bc 226b 573c 95a9 863b
000001c0: b0ae 55bc 49c8 6e3c dfa9 9b3c faff f0bb
000001d0: 69ad a8ba cded 9f3b b1a0 6c3c adf5 87bc
000001e0: f86d 07bc 7073 b0bb 7f9f 433c 76d0 a3ba
000001f0: 87f7 3ebc 0ed0 7f3c a82e 893a 470e 8a3b
00000200: e5f6 07bc 0485 0ebc 1f1e 6abc d444 34bc
00000210: 73cf 9fba 4f71 6b3c 4fc6 13bc bdcb 2d3c
00000220: 1794 703c d683 71bb b968 9b3c 871a 603c
00000230: 1f03 88bc 0979 c5bb 86e7 66bc 4f35 493c
00000240: f454 acbb bdcb f33b 0614 4f3b beb2 bebb
00000250: 8086 2fbc e305 76bc 1684 8cbb 648a 63bb
00000260: f8cf bfba 312a febb 3e04 9c3a 3e61 993c
00000270: 4815 583b 9fd6 2d3c dcdf 5d3b 9d1d 923c
00000280: b263 913a 436d 91bc 5d0c f4bb da86 f039
00000290: a478 53ba c646 163c a1ac 113c 03d1 07bc
000002a0: 5968 4a3c 35ac 5dbc 4666 cc3a 4871 ef3b
000002b0: 3be2 a03a c083 76bc 2e99 0f3c 2347 7fbb
000002c0: aee4 32bc 202e d83b 306f e23b 0850 3fbc
000002d0: 9329 213b 730f b73b cc16 8e3c 91a9 4cbc
000002e0: 3a4f 2b3c a039 8b3b 385a 5ebc 4d88 06bc
000002f0: fa9e 25bb e1d8 9abc 9d80 7fb9 99e7 91bc
00000300: 85ab 4b3c f5a2 883c 8a8b 703c 6d47 dabb
00000310: a3f3 fbbb dbcf bb3b 1e85 7a3c d395 efbb
00000320: 4e93 953c 6399 46bc 32dc 953c bd4f 3dbc
00000330: 5f64 b13b f36d 04ba f22f c4bb efd9 143c
00000340: c4e0 94bb 1f31 d83b 8e6c 01bc 6a67 4c3c
00000350: c72d 8a3b 5f26 1ebc 073d 91bc 2661 6cbc
00000360: ce04 bf3b 535a 883c fe5c 47bc d226 3abc
00000370: 3f76 203c 8a57 863b 9476 a9bb 1ffe 583c
00000380: b481 903c 3eae 07bc edcb aebc 43ed 91bc
00000390: bbeb 2cbc df92 913b b407 a0b9 636c fabb
000003a0: 487a 42bc abd3 383b d8b9 47bc 33cc 893c
000003b0: 1930 1e3c c7fd 773c 8149 c23b 6516 b3bb
000003c0: d309 153c abaf 56bb e7f3 4a3c e16d 523c
000003d0: 2313 8a3c e621 59bc 6af5 f0bb ee04 83bb
000003e0: 4c69 9ebc 9e20 523b b530 893c 5934 62bc
000003f0: 98c0 3d3c 6a20 353c 6121 513c 776a 3cbb
